…
    "source": "---\n## 13. Print Model Architecture\n\n**WHY**: Verify the model structure before training. Check input/output dimensions are correct.",
    "outputs": []
  },
  {
    "id": 26,
    "cell_type": "code",
    "source": "print(\"\ud83c\udfd7\ufe0f Full Model Architecture:\\n\")\nprint(model)\n\n# Test forward pass with dummy input\ndummy_input = torch.randn(1, 3, 32, 32).to(DEVICE)\ndummy_output = model(dummy_input)\nprint(f\"\\n\u2713 Forward pass test: Input {list(dummy_input.shape)} \u2192 Output {list(dummy_output.shape)}\")",
    "outputs": [
      {
        "output_type": "stream",
        "text": "\ud83c\udfd7\ufe0f Full Model Architecture:\n\nSequential(\n  (0): Conv2d(3, 64, kernel_size=(5, 5), stride=(1, 1), padding=(2, 2), bias=False)\n  (1): BatchNorm2d(64, eps=1e-05, momentum=0.1, affine=True, track_running_stats=True)\n  (2): ReLU(inplace=True)\n  (3): Conv2d(64, 119, kernel_size=(5, 5), stride=(1, 1), padding=(2, 2), bias=False)\n  (4): BatchNorm2d(119, eps=1e-05, momentum=0.1, affine=True, track_running_stats=True)\n  (5): ReLU(inplace=True)\n  (6): Dropout2d(p=0.04, inplace=False)\n  (7): AvgPool2d(kernel_size=2, stride=2, padding=0)\n  (8): Conv2d(119, 221, kernel_size=(3, 3), stride=(1, 1), padding=(1, 1), bias=False)\n  (9): BatchNorm2d(221, eps=1e-05, momentum=0.1, affine=True, track_running_stats=True)\n  (10): ReLU(inplace=True)\n  (11): Dropout2d(p=0.05, inplace=False)\n  (12): Conv2d(221, 256, kernel_size=(5, 5), stride=(1, 1), padding=(2, 2), bias=False)\n  (13): BatchNorm2d(256, eps=1e-05, momentum=0.1, affine=True, track_running_stats=True)\n  (14): ReLU(inplace=True)\n  (15): Dropout2d(p=0.02, inplace=False)\n  (16): AvgPool2d(kernel_size=2, stride=2, padding=0)\n  (17): Conv2d(256, 256, kernel_size=(3, 3), stride=(1, 1), padding=(1, 1), bias=False)\n  (18): BatchNorm2d(256, eps=1e-05, momentum=0.1, affine=True, track_running_stats=True)\n  (19): ReLU(inplace=True)\n  (20): Dropout2d(p=0.09, inplace=False)\n  (21): Conv2d(256, 256, kernel_size=(5, 5), stride=(1, 1), padding=(2, 2), bias=False)\n  (22): BatchNorm2d(256, eps=1e-05, momentum=0.1, affine=True, track_running_stats=True)\n  (23): ReLU(inplace=True)\n  (24): Dropout2d(p=0.08, inplace=False)\n  (25): AdaptiveAvgPool2d(output_size=1)\n  (26): Flatten(start_dim=1, end_dim=-1)\n  (27): Dropout(p=0.38, inplace=False)\n  (28): Linear(in_features=256, out_features=10, bias=True)\n)\n\n\u2713 Forward pass test: Input [1, 3, 32, 32] \u2192 Output [1, 10]\n",
        "name": "stdout"
      }
    ]
  },
  {
    "id": 27,
    "cell_type": "markdown",
    "source": "---\n## 14. Define Loss Function\n\n**WHY CrossEntropyLoss?**\n- Standard loss for multi-class classification\n- Combines softmax (convert to probabilities) + negative log likelihood\n\n**WHY Label Smoothing (0.04)?**\n- Instead of hard labels [0,0,1,0,...], use soft labels [0.004,0.004,0.96,0.004,...]\n- Prevents overconfidence and improves generalization",
…
